…
      "WARNING:tensorflow:From /usr/local/lib64/python3.8/site-packages/tensorflow/python/ops/array_ops.py:5043: calling gather (from tensorflow.python.ops.array_ops) with validate_indices is deprecated and will be removed in a future version.\n",
      "Instructions for updating:\n",
      "The `validate_indices` argument has no effect. Indices are always validated on CPU and never validated on GPU.\n",
      "Model: \"model\"\n",
      "__________________________________________________________________________________________________\n",
      "Layer (type)                    Output Shape         Param #     Connected to                     \n",
      "==================================================================================================\n",
      "input_1 (InputLayer)            [(None, 320, 320, 3) 0                                            \n",
      "__________________________________________________________________________________________________\n",
      "padding_1 (ZeroPadding2D)       (None, 324, 324, 3)  0           input_1[0][0]                    \n",
      "__________________________________________________________________________________________________\n",
      "conv1_1 (Conv2D)                (None, 160, 160, 64) 6912        padding_1[0][0]                  \n",
      "__________________________________________________________________________________________________\n",
      "conv1_1_bn (BatchNormalization) (None, 160, 160, 64) 256         conv1_1[0][0]                    \n",
      "__________________________________________________________________________________________________\n",
      "activation (Activation)         (None, 160, 160, 64) 0           conv1_1_bn[0][0]                 \n",
      "__________________________________________________________________________________________________\n",
      "conv2_1 (Conv2D)                (None, 160, 160, 128 73728       activation[0][0]                 \n",
      "__________________________________________________________________________________________________\n",
      "conv2_1_bn (BatchNormalization) (None, 160, 160, 128 512         conv2_1[0][0]                    \n",
…
      "conv2_2_bn (BatchNormalization) (None, 160, 160, 128 512         conv2_2[0][0]                    \n",
      "__________________________________________________________________________________________________\n",
      "activation_2 (Activation)       (None, 160, 160, 128 0           conv2_2_bn[0][0]                 \n",
      "__________________________________________________________________________________________________\n",
      "padding_2 (ZeroPadding2D)       (None, 162, 162, 128 0           activation_2[0][0]               \n",
      "__________________________________________________________________________________________________\n",
      "conv2_3 (Conv2D)                (None, 80, 80, 128)  262144      padding_2[0][0]                  \n",
      "__________________________________________________________________________________________________\n",
      "conv2_3_bn (BatchNormalization) (None, 80, 80, 128)  512         conv2_3[0][0]                    \n",
      "__________________________________________________________________________________________________\n",
      "activation_3 (Activation)       (None, 80, 80, 128)  0           conv2_3_bn[0][0]                 \n",
      "__________________________________________________________________________________________________\n",
      "conv3_1 (Conv2D)                (None, 80, 80, 256)  294912      activation_3[0][0]               \n",
      "__________________________________________________________________________________________________\n",
      "conv3_1_bn (BatchNormalization) (None, 80, 80, 256)  1024        conv3_1[0][0]                    \n",
      "__________________________________________________________________________________________________\n",
      "activation_4 (Activation)       (None, 80, 80, 256)  0           conv3_1_bn[0][0]                 \n",
      "__________________________________________________________________________________________________\n",
      "conv3_2 (Conv2D)                (None, 80, 80, 256)  589824      activation_4[0][0]               \n",
      "__________________________________________________________________________________________________\n",
      "conv3_2_bn (BatchNormalization) (None, 80, 80, 256)  1024        conv3_2[0][0]                    \n",
      "__________________________________________________________________________________________________\n",
      "activation_5 (Activation)       (None, 80, 80, 256)  0           conv3_2_bn[0][0]                 \n",
      "__________________________________________________________________________________________________\n",
      "conv3_3 (Conv2D)                (None, 80, 80, 256)  589824      activation_5[0][0]               \n",
      "__________________________________________________________________________________________________\n",
      "conv3_3_bn (BatchNormalization) (None, 80, 80, 256)  1024        conv3_3[0][0]                    \n",
      "__________________________________________________________________________________________________\n",
      "activation_6 (Activation)       (None, 80, 80, 256)  0           conv3_3_bn[0][0]                 \n",
      "__________________________________________________________________________________________________\n",
      "padding_3 (ZeroPadding2D)       (None, 82, 82, 256)  0           activation_6[0][0]               \n",
      "__________________________________________________________________________________________________\n",
      "conv3_4 (Conv2D)                (None, 40, 40, 256)  1048576     padding_3[0][0]                  \n",
      "__________________________________________________________________________________________________\n",
      "conv3_4_bn (BatchNormalization) (None, 40, 40, 256)  1024        conv3_4[0][0]                    \n",
      "__________________________________________________________________________________________________\n",
      "activation_7 (Activation)       (None, 40, 40, 256)  0           conv3_4_bn[0][0]                 \n",
      "__________________________________________________________________________________________________\n",
      "conv4_1 (Conv2D)                (None, 40, 40, 768)  1769472     activation_7[0][0]               \n",
      "__________________________________________________________________________________________________\n",
      "conv4_1_bn (BatchNormalization) (None, 40, 40, 768)  3072        conv4_1[0][0]                    \n",
      "__________________________________________________________________________________________________\n",
      "activation_8 (Activation)       (None, 40, 40, 768)  0           conv4_1_bn[0][0]                 \n",
      "__________________________________________________________________________________________________\n",
      "conv4_2 (Conv2D)                (None, 40, 40, 768)  5308416     activation_8[0][0]               \n",
      "__________________________________________________________________________________________________\n",
      "conv4_2_bn (BatchNormalization) (None, 40, 40, 768)  3072        conv4_2[0][0]                    \n",
      "__________________________________________________________________________________________________\n",
      "activation_9 (Activation)       (None, 40, 40, 768)  0           conv4_2_bn[0][0]                 \n",
      "__________________________________________________________________________________________________\n",
      "conv4_3 (Conv2D)                (None, 40, 40, 768)  5308416     activation_9[0][0]               \n",
      "__________________________________________________________________________________________________\n",
      "conv4_3_bn (BatchNormalization) (None, 40, 40, 768)  3072        conv4_3[0][0]                    \n",
      "__________________________________________________________________________________________________\n",
      "activation_10 (Activation)      (None, 40, 40, 768)  0           conv4_3_bn[0][0]                 \n",
      "__________________________________________________________________________________________________\n",
      "conv4_4 (Conv2D)                (None, 20, 20, 768)  2359296     activation_10[0][0]              \n",
      "__________________________________________________________________________________________________\n",
      "conv4_4_bn (BatchNormalization) (None, 20, 20, 768)  3072        conv4_4[0][0]                    \n",
      "__________________________________________________________________________________________________\n",
      "activation_11 (Activation)      (None, 20, 20, 768)  0           conv4_4_bn[0][0]                 \n",
      "__________________________________________________________________________________________________\n",
      "conv5_1 (Conv2D)                (None, 20, 20, 768)  5308416     activation_11[0][0]              \n",
      "__________________________________________________________________________________________________\n",
      "conv5_1_bn (BatchNormalization) (None, 20, 20, 768)  3072        conv5_1[0][0]                    \n",
      "__________________________________________________________________________________________________\n",
      "activation_12 (Activation)      (None, 20, 20, 768)  0           conv5_1_bn[0][0]                 \n",
      "__________________________________________________________________________________________________\n",
      "conv5_2 (Conv2D)                (None, 20, 20, 768)  5308416     activation_12[0][0]              \n",
      "__________________________________________________________________________________________________\n",
      "conv5_2_bn (BatchNormalization) (None, 20, 20, 768)  3072        conv5_2[0][0]                    \n",
      "__________________________________________________________________________________________________\n",
      "activation_13 (Activation)      (None, 20, 20, 768)  0           conv5_2_bn[0][0]                 \n",
      "__________________________________________________________________________________________________\n",
      "conv5_3 (Conv2D)                (None, 20, 20, 768)  5308416     activation_13[0][0]              \n",
      "__________________________________________________________________________________________________\n",
      "conv5_3_bn (BatchNormalization) (None, 20, 20, 768)  3072        conv5_3[0][0]                    \n",
      "__________________________________________________________________________________________________\n",
      "activation_14 (Activation)      (None, 20, 20, 768)  0           conv5_3_bn[0][0]                 \n",
      "__________________________________________________________________________________________________\n",
      "conv5_4 (Conv2D)                (None, 10, 10, 768)  2359296     activation_14[0][0]              \n",
      "__________________________________________________________________________________________________\n",
      "conv5_4_bn (BatchNormalization) (None, 10, 10, 768)  3072        conv5_4[0][0]                    \n",
      "__________________________________________________________________________________________________\n",
      "activation_15 (Activation)      (None, 10, 10, 768)  0           conv5_4_bn[0][0]                 \n",
      "__________________________________________________________________________________________________\n",
      "conv6_1 (Conv2D)                (None, 10, 10, 768)  5308416     activation_15[0][0]              \n",
      "__________________________________________________________________________________________________\n",
      "conv6_1_bn (BatchNormalization) (None, 10, 10, 768)  3072        conv6_1[0][0]                    \n",
      "__________________________________________________________________________________________________\n",
      "activation_16 (Activation)      (None, 10, 10, 768)  0           conv6_1_bn[0][0]                 \n",
      "__________________________________________________________________________________________________\n",
      "conv6_2 (Conv2D)                (None, 10, 10, 768)  5308416     activation_16[0][0]              \n",
      "__________________________________________________________________________________________________\n",
      "conv6_2_bn (BatchNormalization) (None, 10, 10, 768)  3072        conv6_2[0][0]                    \n",
      "__________________________________________________________________________________________________\n",
      "activation_17 (Activation)      (None, 10, 10, 768)  0           conv6_2_bn[0][0]                 \n",
      "__________________________________________________________________________________________________\n",
      "conv6_3 (Conv2D)                (None, 10, 10, 768)  5308416     activation_17[0][0]              \n",
      "__________________________________________________________________________________________________\n",
      "conv6_3_bn (BatchNormalization) (None, 10, 10, 768)  3072        conv6_3[0][0]                    \n",
      "__________________________________________________________________________________________________\n",
      "activation_18 (Activation)      (None, 10, 10, 768)  0           conv6_3_bn[0][0]                 \n",
      "__________________________________________________________________________________________________\n",
      "conv6_4 (Conv2D)                (None, 5, 5, 768)    2359296     activation_18[0][0]              \n",
      "__________________________________________________________________________________________________\n",
      "conv6_4_bn (BatchNormalization) (None, 5, 5, 768)    3072        conv6_4[0][0]                    \n",
      "__________________________________________________________________________________________________\n",
      "activation_19 (Activation)      (None, 5, 5, 768)    0           conv6_4_bn[0][0]                 \n",
      "__________________________________________________________________________________________________\n",
      "conv7_1 (Conv2D)                (None, 5, 5, 768)    5308416     activation_19[0][0]              \n",
      "__________________________________________________________________________________________________\n",
      "conv7_1_bn (BatchNormalization) (None, 5, 5, 768)    3072        conv7_1[0][0]                    \n",
      "__________________________________________________________________________________________________\n",
      "activation_20 (Activation)      (None, 5, 5, 768)    0           conv7_1_bn[0][0]                 \n",
      "__________________________________________________________________________________________________\n",
      "conv7_2 (Conv2D)                (None, 5, 5, 768)    5308416     activation_20[0][0]              \n",
      "__________________________________________________________________________________________________\n",
      "conv7_2_bn (BatchNormalization) (None, 5, 5, 768)    3072        conv7_2[0][0]                    \n",
      "__________________________________________________________________________________________________\n",
      "activation_21 (Activation)      (None, 5, 5, 768)    0           conv7_2_bn[0][0]                 \n",
      "__________________________________________________________________________________________________\n",
      "conv7_3 (Conv2D)                (None, 5, 5, 768)    5308416     activation_21[0][0]              \n",
      "__________________________________________________________________________________________________\n",
      "conv7_3_bn (BatchNormalization) (None, 5, 5, 768)    3072        conv7_3[0][0]                    \n",
      "__________________________________________________________________________________________________\n",
      "activation_22 (Activation)      (None, 5, 5, 768)    0           conv7_3_bn[0][0]                 \n",
      "__________________________________________________________________________________________________\n",
      "classification_model (Functiona [(None, None, 81), ( 4542114     activation_10[0][0]              \n",
      "                                                                 activation_14[0][0]              \n",
      "                                                                 activation_18[0][0]              \n",
…
